…
          layers.Dense(128, activation='relu'),
          layers.Dense(num_classes)
        ])
    
        model.compile(optimizer='adam',
                      loss=tf.keras.losses.SparseCategoricalCrossentropy(from_logits=True),
                      metrics=['accuracy'])
        model.summary()

.. tab:: Output

    .. code:: none

        Model: "sequential_3"
        _________________________________________________________________
         Layer (type)                Output Shape              Param #   
        =================================================================
         rescaling_3 (Rescaling)     (None, 180, 180, 3)       0         
                                                                     
         conv2d (Conv2D)             (None, 180, 180, 16)      448       
                                                                     
         max_pooling2d (MaxPooling2D  (None, 90, 90, 16)       0         
         )                                                               
                                                                     
         flatten_3 (Flatten)         (None, 129600)            0         
                                                                     
         dense_6 (Dense)             (None, 128)               16588928  
                                                                     
         dense_7 (Dense)             (None, 5)                 645       
                                                                     
        =================================================================
        Total params: 16,590,021
        Trainable params: 16,590,021
        Non-trainable params: 0
        _________________________________________________________________

.. tab:: Python
    :new-set:

    .. code:: python

        epochs=10
        history = model.fit(
…
        layers.Dense(128, activation='relu'),
        layers.Dense(num_classes)
        ])
    
        model.compile(optimizer='adam',
                      loss=tf.keras.losses.SparseCategoricalCrossentropy(from_logits=True),
                      metrics=['accuracy'])
        model.summary()


.. tab:: Output

    .. code:: none

        Model: "sequential_5"
        _________________________________________________________________
         Layer (type)                Output Shape              Param #   
        =================================================================
         rescaling_5 (Rescaling)     (None, 180, 180, 3)       0         
                                                                     
         conv2d_4 (Conv2D)           (None, 180, 180, 16)      448       
                                                                     
         max_pooling2d_4 (MaxPooling  (None, 90, 90, 16)       0         
         2D)                                                             
                                                                     
         conv2d_5 (Conv2D)           (None, 90, 90, 32)        4640      
                                                                     
         max_pooling2d_5 (MaxPooling  (None, 45, 45, 32)       0         
         2D)                                                             
                                                                     
         conv2d_6 (Conv2D)           (None, 45, 45, 64)        18496     
                                                                     
         max_pooling2d_6 (MaxPooling  (None, 22, 22, 64)       0         
         2D)                                                             
                                                                     
         flatten_5 (Flatten)         (None, 30976)             0         
                                                                     
         dense_10 (Dense)            (None, 128)               3965056   
                                                                     
         dense_11 (Dense)            (None, 5)                 645       
                                                                     
        =================================================================
        Total params: 3,989,285
        Trainable params: 3,989,285
        Non-trainable params: 0
        _________________________________________________________________


Fit same model as last time.

.. tab:: Python

    .. code:: python

        epochs=10
…
          layers.Dense(128, activation='relu'),
          layers.Dense(num_classes, name="outputs")
        ])
    
        model.compile(optimizer='adam',
                      loss=tf.keras.losses.SparseCategoricalCrossentropy(from_logits=True),
                      metrics=['accuracy'])
        model.summary()


.. tab:: Output

    .. code:: none

        Model: "sequential_6"
        _________________________________________________________________
         Layer (type)                Output Shape              Param #   
        =================================================================
         rescaling_6 (Rescaling)     (None, 180, 180, 3)       0         
                                                                     
         conv2d_7 (Conv2D)           (None, 180, 180, 16)      448       
                                                                     
         max_pooling2d_7 (MaxPooling  (None, 90, 90, 16)       0         
         2D)                                                             
                                                                     
         conv2d_8 (Conv2D)           (None, 90, 90, 32)        4640      
                                                                     
         max_pooling2d_8 (MaxPooling  (None, 45, 45, 32)       0         
         2D)                                                             
                                                                     
         conv2d_9 (Conv2D)           (None, 45, 45, 64)        18496     
                                                                     
         max_pooling2d_9 (MaxPooling  (None, 22, 22, 64)       0         
         2D)                                                             
                                                                     
         dropout (Dropout)           (None, 22, 22, 64)        0         
                                                                     
         flatten_6 (Flatten)         (None, 30976)             0         
                                                                     
         dense_12 (Dense)            (None, 128)               3965056   
                                                                     
         outputs (Dense)             (None, 5)                 645       
                                                                     
        =================================================================
        Total params: 3,989,285
        Trainable params: 3,989,285
        Non-trainable params: 0
        _________________________________________________________________

.. tab:: Python
    :new-set:

    .. code:: python

        epochs = 10
        history = model.fit(
…
            layers.Dense(128, activation='relu'),
            layers.Dense(num_classes, name="outputs")
        ])
    
        model.compile(optimizer='adam',
                      loss=tf.keras.losses.SparseCategoricalCrossentropy(from_logits=True),
                      metrics=['accuracy'])
        model.summary()


.. tab:: Output

    .. code:: none

        Model: "sequential_8"
        _________________________________________________________________
         Layer (type)                Output Shape              Param #   
        =================================================================
         sequential_7 (Sequential)   (None, 180, 180, 3)       0         
                                                                        
         rescaling_7 (Rescaling)     (None, 180, 180, 3)       0         
                                                                        
         conv2d_10 (Conv2D)          (None, 180, 180, 16)      448       
                                                                        
         max_pooling2d_10 (MaxPoolin  (None, 90, 90, 16)       0         
         g2D)                                                            
                                                                        
         conv2d_11 (Conv2D)          (None, 90, 90, 32)        4640      
                                                                        
         max_pooling2d_11 (MaxPoolin  (None, 45, 45, 32)       0         
         g2D)                                                            
                                                                        
         conv2d_12 (Conv2D)          (None, 45, 45, 64)        18496     
                                                                        
         max_pooling2d_12 (MaxPoolin  (None, 22, 22, 64)       0         
         g2D)                                                            
                                                                        
         dropout_1 (Dropout)         (None, 22, 22, 64)        0         
                                                                        
         flatten_7 (Flatten)         (None, 30976)             0         
                                                                        
         dense_13 (Dense)            (None, 128)               3965056   
                                                                        
         outputs (Dense)             (None, 5)                 645       
                                                                     
        =================================================================
        Total params: 3,989,285
        Trainable params: 3,989,285
        Non-trainable params: 0
        _________________________________________________________________


We increase the number of epochs here to make sure we minimize
validation loss.
…
